model/ncr_N30_h50_seed_0_e50.pth (torch, 94132 bytes, 8 tensors)

fc1.weight f4 [64, 3]
0	0x3d0b0340	0.033938646
1	0x3e5827a6	0.21108875
2	0xbf097c77	-0.53705543
3	0xbe2628da	-0.16226521
4	0xbe616953	-0.22012834
5	0x3e27f69f	0.16402672
6	0xbd8cdb37	-0.068777494
7	0x3f13443a	0.5752598
8	0xbd00679a	-0.031348802
9	0x3e3a366d	0.18184824
10	0xbea6cbee	-0.3257746
11	0xbe9dc8bc	-0.3081721
12	0xbf703864	-0.93836045
13	0xbe2614b2	-0.16218832
14	0xbe97de89	-0.29661968
15	0x3d9f5025	0.07778958
16	0x3ddf628e	0.1090747
17	0x3e88243e	0.2659015
18	0xbe3e02a1	-0.1855569
19	0xbee2fb93	-0.4433256
20	0x3e98a3b8	0.29812407
21	0x3f3fb043	0.7487833
22	0xbdeafa33	-0.11473503
23	0x3f041916	0.5160078
24	0xbdf6b48f	-0.120461576
25	0x3ac451d6	0.0014978002
26	0x3f16f0cf	0.58961195
27	0xbf04781e	-0.51745784
28	0xbe5f9912	-0.21835735
29	0xbe8cd989	-0.27509716
30	0xbeae9b70	-0.34102964
31	0x3f0af58f	0.5428094
32	0xbefc9124	-0.49329484
33	0xbf05f1db	-0.5232217
34	0xbe6fa52a	-0.23402849
35	0xbf1488aa	-0.5802103
36	0xbe849ea7	-0.25902292
37	0x3eb8cf6d	0.36095753
38	0x3e90e9be	0.2830333
39	0x3e4e99ea	0.20175901
40	0x3cbb0d19	0.022833394
41	0xbe9e406d	-0.30908528
42	0xbcf2c1c4	-0.02963341
43	0xbedd44d5	-0.43216577
44	0xbe811c56	-0.2521693
45	0xbeb7221c	-0.3576821
46	0x3eb7921d	0.35853663
47	0x3eb182ef	0.34670207
48	0xbd87df0a	-0.06634338
49	0x3bc449c0	0.005990237
50	0x3ea5a1df	0.3235006
51	0x3efc1212	0.49232537
52	0x3e2959df	0.1653819
53	0x3e9c9cc9	0.30588368
54	0x3f259802	0.6468507
55	0xbe1639f5	-0.14670546
56	0x3e4bd69c	0.19906086
57	0xbf3a495f	-0.72768205
58	0xbe111e2b	-0.14171664
59	0xbf0010ea	-0.5002581
60	0x3ec01d61	0.37522414
61	0x3d919f67	0.07110482
62	0xbec27343	-0.37978563
63	0x3db698aa	0.08915837
64	0x3e27b24a	0.16376606
65	0xbbebfba8	-0.0072016306
66	0xbd71a09b	-0.058991056
67	0xbb3e7d5a	-0.0029066415
68	0x3eb474b6	0.35245293
69	0x3f3bbe0d	0.7333687
70	0xbe58d8b3	-0.21176414
71	0xbe842baa	-0.25814563
72	0x3e81dc49	0.25363377
73	0x3f094887	0.5362629
74	0x3edb900c	0.42883337
75	0x3f263649	0.6492658
76	0x3ddbf7f2	0.10740651
77	0xbf1e9f4e	-0.6196183
78	0xbd2f2ac3	-0.04276539
79	0xbe856722	-0.26055247
80	0xbec19f02	-0.37816626
81	0x3f1422e0	0.57865715
82	0x3ebf5f89	0.37377575
83	0xbf14d5a6	-0.581385
84	0x3e4a9f14	0.19787246
85	0xbe26dfb5	-0.16296275
86	0xbe8cea49	-0.27522495
87	0xbe326071	-0.17419602
88	0x3e946f4d	0.28991166
89	0xbecf588f	-0.40497252
90	0x3dbc73df	0.09201788
91	0x3e5e43e2	0.21705583
92	0x3e7a1355	0.24421437
93	0x3dc296e7	0.095014386
94	0xbec0f494	-0.37686598
95	0xbec17131	-0.3778167
96	0x3e9473c2	0.28994566
97	0x3e4964ba	0.1966733
98	0xbf1e5cb1	-0.61860186
99	0xbedf973b	-0.43670067
100	0x3ee6dcb9	0.45090273
101	0x3f185cc0	0.59516525
102	0xbe949e66	-0.29027098
103	0xbe39852c	-0.18117207
104	0xbf2fba57	-0.6864371
105	0xbbfc5df2	-0.007701629
106	0xbd92bdc0	-0.07165098
107	0xbeccf681	-0.40031818
108	0xbdf6437e	-0.12024592
109	0x3dd243b6	0.10266821
110	0xbeb82d97	-0.35972282
111	0x3ee1de3d	0.44114867
112	0xbe92f797	-0.2870452
113	0x3f20eade	0.6285838
114	0x3e6a3045	0.22869976
115	0xbe9cfb7d	-0.3066062
116	0xbe6b0e15	-0.2295459
117	0x3c374c85	0.011187677
118	0x3da5c485	0.08094124
119	0x3e56e1b5	0.20984538
120	0x3e847064	0.25866997
121	0xbc37191b	-0.011175419
122	0xbeca49d6	-0.39509457
123	0x3d7755ce	0.060384564
124	0xbef8272d	-0.4846739
125	0xbe5452fa	-0.20734778
126	0xbcb8bf69	-0.022552209
127	0xbe377f1d	-0.17919584
128	0xbdda4fe2	-0.10659768
129	0xbedc1104	-0.42981732
130	0xbed326ff	-0.4124069
131	0x3ec3f4fb	0.38272843
132	0xbea68aed	-0.32527867
133	0xbd2ebbb1	-0.042659465
134	0x3edcb7d0	0.43108988
135	0xbd731ad2	-0.05935175
136	0x3c837292	0.016045842
137	0xbd4c02d1	-0.049807373
138	0x3d144134	0.036194995
139	0x3eb38c03	0.35067758
140	0x3ee132bb	0.43984017
141	0x3ec72286	0.38893527
142	0x3e98f3ef	0.29873607
143	0xbd5eb604	-0.054372802
144	0xbe8fce8f	-0.2808728
145	0xbe951a83	-0.2912179
146	0x3ef981c8	0.48731828
147	0xbcbacdc6	-0.022803199
148	0xbe33fe00	-0.17577362
149	0xbe84393a	-0.2582491
150	0xbf537056	-0.82593286
151	0xbe1adfe8	-0.15124476
152	0x3ce8d485	0.02842165
153	0x3ebc1ea5	0.3674213
154	0x3e94739f	0.28994462
155	0xbf0cd4f9	-0.5501247
156	0x3e889362	0.26674944
157	0xbe8dbc6b	-0.27682814
158	0xbdc89e29	-0.09795792
159	0xbed9219c	-0.42408454
160	0xbe761481	-0.24031259
161	0x3da4fde8	0.08056241
162	0xbec81434	-0.39077914
163	0xbeaee565	-0.3415939
164	0xbdd6c9e7	-0.104877286
165	0x3dd05db5	0.10174123
166	0xbe50503a	-0.20343104
167	0x3ee3f46a	0.4452241
168	0xbf222f39	-0.63353306
169	0xbc4409a2	-0.011965187
170	0x3f16fb97	0.58977646
171	0xbebf036a	-0.37307292
172	0x3e8caeb0	0.27477026
173	0x3eba1c32	0.36349636
174	0xbf49f54c	-0.7888992
175	0x3e4c2594	0.1993621
176	0x3ce85e36	0.028365236
177	0xbea47422	-0.32119852
178	0x3ecca422	0.39968973
179	0xbeebb622	-0.46037394
180	0x3d120f39	0.03565905
181	0xbe0d250f	-0.13783668
182	0x3edbc57e	0.42924112
183	0x3e4f3e29	0.20238556
184	0x3e2eef3c	0.17083448
185	0x3e281fd7	0.16418396
186	0xbdd970cf	-0.1061722
187	0xbdba0ce0	-0.09084487
188	0xbf2040a4	-0.62598634
189	0x3e9168a2	0.2840014
190	0x3eea7ffc	0.4580077
191	0x3ed2386c	0.4105867

fc1.bias f4 [64]
0	0xbf161d05	-0.5863803
1	0xbe83bf51	-0.257319
2	0xbf534ab8	-0.82535887
3	0xbf25a60e	-0.64706504
4	0xbdbc9c9d	-0.09209559
5	0x3cb60e20	0.022223532
6	0xbf544b42	-0.82927334
7	0xbda8c49a	-0.08240624
8	0xbdefb20f	-0.11703884
9	0x3e3ff860	0.18747091
10	0xbf51e7a3	-0.81994075
11	0xbe8cc13e	-0.27491182
12	0xbf0e7955	-0.5565389
13	0x3e8b3a87	0.2719309
14	0xbed4306c	-0.41443193
15	0x3ee8b079	0.45447138
16	0x3dd83468	0.10556871
17	0x3d5f1461	0.054462794
18	0xbdc5309d	-0.09628413
19	0xbd849484	-0.064736396
20	0x3dfc9104	0.12332347
21	0xbe855a88	-0.26045632
22	0xbeb14e63	-0.34630117
23	0xbe08cf68	-0.13360369
24	0xbf62235a	-0.8833519
25	0x3ca96c19	0.020681428
26	0x3ea71d30	0.32639456
27	0xbefa7b71	-0.48922303
28	0xbe8274b5	-0.25479665
29	0x3f45776e	0.7713536
30	0x3e7c3078	0.24627864
31	0xbe456b5c	-0.19279236
32	0xbebf4577	-0.37357685
33	0x3e41a0d4	0.18909007
34	0xbebce83d	-0.36895934
35	0xbef5804e	-0.4794945
36	0xbec703fb	-0.38870224
37	0xbe6304c9	-0.22169794
38	0xbe5c6c0c	-0.21525592
39	0x3e901801	0.28143314
40	0x3d72c38f	0.05926853
41	0x3f019cd7	0.50629944
42	0x3c027892	0.0079633165
43	0xbf3eb868	-0.7450013
44	0x3e6f23a3	0.23353438
45	0xbed0f5f9	-0.40812662
46	0xbf22c6f8	-0.6358485
47	0x3df94157	0.12170666
48	0xbc0942b9	-0.008377724
49	0x3ea6e748	0.3259833
50	0xbe36035f	-0.17774723
51	0xbe03bf3f	-0.12865923
52	0x3cb6f4b1	0.022333475
53	0xbf312883	-0.6920244
54	0x3ee04107	0.43799612
55	0xbf1349f6	-0.5753473
56	0x3b36e794	0.0027909027
57	0xbe597438	-0.2123574
58	0xbd686071	-0.0567326
59	0x3e2d4a02	0.16922763
60	0x3f0477f1	0.51745516
61	0xbe803fb3	-0.250486
62	0xbe79270e	-0.24331304
63	0xbefaf651	-0.4901605

fc2.weight f4 [128, 64]
0	0xbe53e76e	-0.20693752
1	0xbe47c742	-0.19509605
2	0x3d6fe4c3	0.058567774
3	0xbe5ebe55	-0.21752293
4	0xbdfa32d4	-0.12216726
5	0x3e07626f	0.13221143
6	0xbe144b7f	-0.14481924
7	0x3d8f9fe8	0.070129216
8	0xbdd020a4	-0.10162476
9	0xbdf84135	-0.12121812
10	0x3da1e8c9	0.07905728
11	0xbd3328d6	-0.043740116
12	0x3d5849cc	0.052804753
13	0x3d94bfb4	0.07263127
14	0xbebfb1ce	-0.37440342
15	0x3deab257	0.11459797
16	0xbe643b0e	-0.22288153
17	0x3da942fd	0.0826473
18	0xbdbc94ca	-0.09208067
19	0xbde6987a	-0.11259551
20	0x3e02e6d7	0.12783371
21	0xbd876a2d	-0.06612048
22	0xbe1e43d4	-0.15455562
23	0xbd02fa76	-0.03197714
24	0x3d98f168	0.074679196
25	0xbe035f1f	-0.12829255
26	0xbdd22afc	-0.10262105
27	0x3d763918	0.060113043
28	0xbe0ca595	-0.1373504
29	0x3ea80caa	0.32822162
30	0x3d51a988	0.05118707
31	0xbe295a35	-0.16538318
32	0xbda6582c	-0.08122286
33	0x3de34bf1	0.11098469
34	0xbdc24241	-0.09485293
35	0xbb96e0cd	-0.004604435
36	0xbd7c74b7	-0.061634745
37	0x3b1ea770	0.0024208687
38	0xbe1df62c	-0.15425938
39	0x3d4c5edb	0.04989515
40	0x3d4c6bd7	0.04990753
41	0xbe01d557	-0.12679039
42	0x3d1bf859	0.03807864
43	0xbe801c41	-0.25021556
44	0xbe82cc11	-0.25546315
45	0x3cb7f4e0	0.022455633
46	0xbcb55007	-0.022132887
47	0x3de6dd45	0.112726726
48	0xbec2ce1b	-0.3804787
49	0xbd50712f	-0.05088919
50	0xbd3b289f	-0.045693036
51	0x3d7b5fc8	0.06137064
52	0xbdb4b889	-0.0882426
53	0x3e5e875c	0.21731323
54	0xbe0ed0be	-0.13946816
55	0xbf2ee703	-0.68321246
56	0xbe6ad495	-0.22932656
57	0xbca78586	-0.020449411
58	0x3e007cb7	0.12547575
59	0x3e8966ec	0.26836336
60	0xbe39e02b	-0.1815192
61	0x3d404fc9	0.04695109
62	0x3c930aa4	0.01794941
63	0x3daac920	0.08339143
64	0xbf1c00ef	-0.60938925
65	0xbdbe6f61	-0.092985876
66	0xbe315441	-0.17317297
67	0x3bf1f595	0.007384012
68	0xbe97a2f0	-0.296165
69	0x3e5d1e0b	0.21593492
70	0xbde5b876	-0.11216824
71	0x3e0f3f69	0.13989033
72	0x3df075f6	0.11741249
73	0xbe45477d	-0.19265552
74	0xbe50d64f	-0.20394252
75	0xbf1f72e0	-0.6228466
76	0x3e324c5b	0.1741194
77	0x3db0b8a8	0.086289704
78	0x3dbaef4d	0.09127674
79	0x3e021690	0.1270392
80	0x3dec455d	0.115366675
81	0x3d923941	0.071398266
82	0x3e81ec40	0.25375557
83	0xbecff6ef	-0.40618083
84	0xbe2d535c	-0.1692633
85	0xbda1c5b5	-0.07899038
86	0x3dc5a286	0.096501395
87	0x3e111b4b	0.14170568
88	0xbbbe5082	-0.005807937
89	0xbd56f675	-0.052481133
90	0x3c6f42ef	0.014603361
91	0xbe122e15	-0.14275391
92	0xbe2221a0	-0.1583314
93	0xbdfb2f91	-0.12264932
94	0x3dc45ad0	0.095876336
95	0x3e6fc198	0.23413694
96	0xbe9934c0	-0.29923058
97	0x3e0cfde3	0.13768725
98	0xbe8aca96	-0.27107686
99	0x3d3e3cc3	0.046444666
100	0xbf018c44	-0.50604653
101	0x3e522bc1	0.20524503
102	0xbcde9383	-0.027169948
103	0x3decc973	0.11561861
104	0xbe5f81df	-0.21826886
105	0xbe141250	-0.1446011
106	0xbde65074	-0.11245814
107	0xbd19d726	-0.037558697
108	0x3d9cad86	0.076502845
109	0x3df02ee8	0.11727697
110	0x3e82765d	0.2548093
111	0xbe0270c9	-0.12738337
112	0xbdcde4cb	-0.100534044
113	0xbdf25d94	-0.11834255
114	0xbeabdc67	-0.3356659
115	0xbd994143	-0.07483151
116	0xbd60c8e4	-0.054879084
117	0xbe66f8d8	-0.22555864
118	0xbe6aad4e	-0.22917673
119	0xbda93d4d	-0.08263645
120	0x3dc1f94f	0.0947138
121	0x3e2b7af8	0.16746128
122	0x3de8c2eb	0.11365303
123	0xbd4ea123	-0.05044664
124	0x3e776256	0.24158606
125	0x3c5b0f97	0.013370416
126	0xbda44052	-0.080200806
127	0x3e809e29	0.25120667
128	0xbe12b205	-0.14325722
129	0x3ee68e09	0.4503024
130	0xbd7629fe	-0.06009864
131	0x3f113be1	0.5673199
132	0x3e02252e	0.12709495
133	0xbe0b0b52	-0.13578537
134	0x3cb0e45c	0.021593265
135	0x3e18ee5e	0.1493468
136	0xbf343168	-0.7038789
137	0xbed87cc8	-0.422827
138	0xbf790f03	-0.9728853
139	0xbe4b7ea6	-0.19872531
140	0x3d7e2e1e	0.0620557
141	0x3c888260	0.01666373
142	0x3e566a0f	0.20938896
143	0xbdf29a8a	-0.11845882
144	0xbe3ed1dd	-0.18634744
145	0x3d09099a	0.033456422
146	0x3e43366d	0.1906373
147	0xbeeebb17	-0.46627113
148	0x3d8d586a	0.06901629
149	0xbd454005	-0.048156757
150	0x3e250bfe	0.16117856
151	0x3ea9ad1f	0.33139893
152	0x3dbd8f14	0.092558056
153	0x3e44dcc0	0.19224834
154	0xbdd7f047	-0.10543876
155	0x3e2f8e64	0.17144161
156	0x3e66c9b0	0.22537875
157	0xbe491d9b	-0.196402
158	0xbe3eb69a	-0.18624344
159	0x3e676800	0.22598267
160	0x3d813d9a	0.06310578
161	0xbd1ddfa6	-0.038543366
162	0xbeb3e5ba	-0.35136205
163	0x3b9295cc	0.0044734236
164	0xbed7c664	-0.42143548
165	0x3cbd17af	0.023082582
166	0x3e9628e2	0.29328066
167	0xbdc0e95b	-0.09419509
168	0x3dc6dc30	0.09709966
169	0xba0bc563	-0.0005331842
170	0x3c5e677b	0.013574476
171	0xbe1f015a	-0.1552786
172	0xbef303de	-0.47463888
173	0x3d387860	0.045036674
174	0xbede2ae0	-0.43392086
175	0x3d29934d	0.041400243
176	0x3e6838c5	0.22677906
177	0xbce4b46c	-0.027918063
178	0xbea56f91	-0.3231168
179	0x3da470fa	0.08029361
180	0x3e57cf8e	0.2107527
181	0xbddc347e	-0.107521996
182	0xbe3cfb79	-0.18455304
183	0x3ecc5392	0.3990751
184	0xbec68325	-0.3877193
185	0x3e0f1ed6	0.13976607
186	0xbe1ced5e	-0.15324923
187	0xbdd8eaf0	-0.10591686
188	0xbe8474d9	-0.25870398
189	0x3e15b620	0.14620256
190	0xbedc0780	-0.42974472
191	0x3df0a87a	0.11750884
192	0xbd5611ae	-0.052262954
193	0x3d98cd18	0.074609935
194	0xbc44daf2	-0.012015091
195	0x3ada5604	0.0016657715
196	0x3dabba83	0.08385184
197	0x3e0f7b81	0.14011957
198	0x3ea031b0	0.3128791
199	0x3ea07f0b	0.31346926
200	0x3e823c85	0.25436798
201	0x3dcad38a	0.09903629
202	0xbf24e1cd	-0.64407045
203	0xbe283b24	-0.1642881
204	0xbe16bf20	-0.14721346
205	0xbf30a258	-0.68997717
206	0x3e1e0500	0.15431595
207	0xbe1b651e	-0.15175292
208	0x3e59e957	0.21280418
209	0x3d1769b1	0.03696603
210	0x3e396045	0.1810313
211	0xbe173bae	-0.1476886
212	0xbefcf52f	-0.4940581
213	0xbe1cf406	-0.15327463
214	0x3e73755f	0.23775242
215	0x3de38fa4	0.11111382
216	0x3e07acd9	0.1324953
217	0xbe45f0b2	-0.19330099
218	0x3cbefc0e	0.023313548
219	0xbe4ce944	-0.20010859
220	0xbf30ab91	-0.6901179
221	0xbf17af50	-0.5925188
222	0xbd619ceb	-0.05508129
223	0x3e150c0b	0.14555375
224	0xbee0f63f	-0.4393787
225	0xbe47da63	-0.19516902
226	0xbe4764c1	-0.19472028
227	0xbe0cf983	-0.13767056
228	0xbd981e44	-0.07427648
229	0x3eb9522a	0.361955
230	0x3d6b0265	0.05737533
231	0x3d8e1306	0.06937222
232	0xbf0d0637	-0.5508761
233	0x3d338b24	0.043833867
234	0x3dbf98ad	0.093552925
235	0x3ebc2e94	0.36754286
236	0x3e77cbf2	0.24198893
237	0xbdb359dc	-0.08757374
238	0x3e5af778	0.21383464
239	0xbe4aea04	-0.19815832
240	0x3e351fab	0.17687862
241	0xbd97f20e	-0.07419215
242	0x3e0dd4f3	0.13850765
243	0xbe6b013c	-0.2294969
244	0xbe25b6d3	-0.16183023
245	0x3ef0ebc8	0.47054887
246	0x3e16dc72	0.1473253
247	0x3ed563be	0.4167766
248	0x3ea4a93e	0.32160372
249	0xbe24ef39	-0.16106881
250	0xbda4f76c	-0.080550045
251	0xbeeac0b7	-0.45850155
252	0x3e483186	0.19550142
253	0x3d434010	0.047668517
254	0xbe5c2d01	-0.21501543
255	0x3e067a73	0.13132648

fc2.bias f4 [128]
0	0x3e79f002	0.24407962
1	0x3e3384de	0.17531154
2	0xbe3da4cb	-0.18519895
3	0x3c67a4c7	0.014138407
4	0x3e0b9831	0.13632275
5	0xbe10d47e	-0.1414356
6	0xbeb05ed4	-0.34447348
7	0x3b212c92	0.0024593216
8	0xbebf8543	-0.37406358
9	0xbd8b23d7	-0.06793945
10	0xbeb730de	-0.3577947
11	0xbea18121	-0.3154383
12	0x3e547556	0.20747885
13	0xbcfc7390	-0.030816823
14	0x3e17f9b6	0.14841351
15	0x3e1bcd32	0.15214995
16	0xbdd7955a	-0.105265334
17	0x3d8c7258	0.06857747
18	0x3dd780a2	0.10522582
19	0x3e07cb60	0.13261175
20	0x3d73c115	0.05951031
21	0x3e1734f0	0.14766288
22	0x3c882262	0.016617958
23	0xbe8d1c8c	-0.27560842
24	0xbe0e3ab7	-0.13889585
25	0xbdd84edc	-0.10561916
26	0x3cf9c5fb	0.030489912
27	0x3dff0ec6	0.1245399
28	0x3ccf161d	0.0252791
29	0x3dff0710	0.12452519
30	0xbe40036c	-0.18751305
31	0x3d413578	0.047170132
32	0x3b905fde	0.0044059595
33	0xbd746fde	-0.059676997
34	0x3e00818f	0.12549423
35	0xbd6f0132	-0.05835075
36	0x3d715da4	0.058927193
37	0xbc635e5d	-0.013877478
38	0xbdb8d3a0	-0.09024739
39	0x3e5269d0	0.20548177
40	0xbddfbd10	-0.10924733
41	0xbe5d9662	-0.21639398
42	0x3d40fe33	0.047117423
43	0xbeea64ef	-0.4578013
44	0xbe5a3e02	-0.21312717
45	0xbd851ad8	-0.06499261
46	0xbe83817e	-0.25684732
47	0x3ea98681	0.3311043
48	0x3e9cd2dc	0.30629623
49	0x3d5b2e3f	0.0535109
50	0xbdbd4b6a	-0.092429
51	0x3df53f0b	0.11974915
52	0xbdf52d34	-0.119715124
53	0xbd4e62cf	-0.0503872
54	0x3c60f4dd	0.013730255
55	0x3e7bf188	0.24603856
56	0xbe0487ad	-0.12942381
57	0x3e40d803	0.18832402
58	0x3e145f64	0.14489514
59	0x3e3d41e1	0.18482162
60	0xbd87370a	-0.06602295
61	0x3eb24328	0.3481686
62	0x3d62aaff	0.055338856
63	0x3cdd5943	0.027020102
64	0xbd216a13	-0.0394078
65	0x3e0d244c	0.13783377
66	0x3dd61f45	0.10455183
67	0x3d9f4657	0.07777088
68	0xbd82ae2b	-0.06380876
69	0x3c9de888	0.019275919
70	0x3d82979f	0.06376576
71	0x3dae7ab6	0.08519499
72	0xbda4f5a0	-0.08054662
73	0x3e244722	0.1604276
74	0x3f044825	0.51672584
75	0x3e17f525	0.14839609
76	0x3e21f7f2	0.1581724
77	0x3e455da2	0.19274
78	0x3ee7a6a5	0.45244327
79	0xbcb1cb04	-0.02170325
80	0x3db910d4	0.09036413
81	0x3df8b394	0.12143627
82	0x3e97024b	0.29493937
83	0x3d8cc32a	0.06873162
84	0x3e661a33	0.22470932
85	0xbda3a82d	-0.07991061
86	0x3ea21e82	0.316639
87	0xbdd359f9	-0.10319895
88	0x3e595de5	0.21227224
89	0x3e136d84	0.14397246
90	0x3df6fd02	0.12059976
91	0x3e3d505c	0.18487686
92	0x3e14d951	0.14536025
93	0xbe97b1cb	-0.29627833
94	0xbe02912d	-0.12750693
95	0x3e82fb7e	0.25582498
96	0xbd5fc951	-0.05463535
97	0x3e0d88d1	0.13821723
98	0x3def2b23	0.116781496
99	0xbe30e858	-0.17276132
100	0xbd86adf6	-0.06576149
101	0x3e01f956	0.1269277
102	0x3eaab2fd	0.33339682
103	0xbdbc9866	-0.09208755
104	0x3de5d3ef	0.11222064
105	0x3e8afd11	0.271462
106	0xbda93fb9	-0.08264107
107	0xbe5f02ff	-0.21778487
108	0x3e783f86	0.24242982
109	0xbecb73e1	-0.39736846
110	0x3e55ebf5	0.20890792
111	0x3ec91923	0.3927699
112	0xbed3bfe0	-0.41357327
113	0xbd79d8cb	-0.060997766
114	0x3cd03d03	0.025419718
115	0xbe4e103a	-0.20123377
116	0x3d345b4b	0.044032376
117	0xbe8bdcc3	-0.27316865
118	0x3b174b45	0.0023085636
119	0xbd8b1bf9	-0.06792445
120	0x3d3cefe3	0.04612721
121	0x3e9e6b25	0.3094112
122	0x3e9f23e3	0.31082067
123	0xbe2de5dc	-0.16982216
124	0x3d8d513d	0.069002606
125	0xbe6cc428	-0.23121703
126	0x3cf95186	0.030434381
127	0x3e973f73	0.29540595

fc3.weight f4 [64, 128]
0	0x3ca72c67	0.020406915
1	0x3db8c53f	0.09021997
2	0xbeae87ef	-0.34088084
3	0xbd587358	-0.052844375
4	0x3e498976	0.19681343
5	0x3d6716e8	0.05641833
6	0x3f028cf4	0.5099633
7	0x3df3c23b	0.11902281
8	0xbd065b9c	-0.03280221
9	0x3e07111d	0.13190122
10	0xbe2d93cf	-0.16950916
11	0x3c477a94	0.012175221
12	0x3d452c77	0.048138108
13	0xbd4cbdbf	-0.049985643
14	0x3d886bfc	0.066612214
15	0x3d3cb5b4	0.046071723
16	0xbcea48c8	-0.028599158
17	0xbc4ece93	-0.012622493
18	0xbcc5aa2d	-0.024128998
19	0xbe1295cc	-0.14314955
20	0x3d3503c4	0.044193044
21	0x3e342411	0.17591883
22	0x3c95dd47	0.01829399
23	0x3df6c713	0.12049689
24	0x3e7abc54	0.24485904
25	0xbc0baceb	-0.008525114
26	0x3d6ec75d	0.058295596
27	0x3dd63725	0.10459737
28	0x3cceddb4	0.0252522
29	0xbdc6e7d8	-0.097121894
30	0xbd1f1407	-0.03883746
31	0xbc61c6ee	-0.013780339
32	0x3e809a81	0.25117877
33	0xbca38821	-0.019962372
34	0x3dcc63ae	0.0997995
35	0xbd385c9e	-0.0450102
36	0x3dc2a960	0.09504962
37	0x3dc49091	0.09597886
38	0x3cb1a4fa	0.021685112
39	0x3e9cfcc0	0.30661583
40	0x3b651e35	0.0034960632
41	0x3e1b8042	0.15185645
42	0x3c544866	0.012956714
43	0x3f017553	0.5056965
44	0x3e42c373	0.1901987
45	0xbba83e6e	-0.0051343953
46	0x3d14317a	0.036179997
47	0xbe3ab6d7	-0.1823381
48	0xbe91c838	-0.28473067
49	0x3db8ac2c	0.09017214
50	0x3d913cdf	0.07091688
51	0xbdd53cda	-0.10411997
52	0xbd826781	-0.06367398
53	0x3d81ae39	0.063320585
54	0xbd393261	-0.04521406
55	0x3d49971c	0.049216375
56	0x3d679d01	0.056546215
57	0x3ddb9730	0.10722196
58	0xbd3e5676	-0.046469174
59	0xbdf5a605	-0.11994556
60	0xbd15d1bb	-0.036576968
61	0x3e02fc6b	0.12791602
62	0xbdd35d34	-0.103205115
63	0x3cbed841	0.023296477
64	0x3dabeae3	0.083944105
65	0xbd22b6a8	-0.039724976
66	0x3ca5e524	0.020250864
67	0x3ddcb5a7	0.10776835
68	0xbcba93ae	-0.022775497
69	0xbcdf476f	-0.027255742
70	0x3be4b84a	0.006979977
71	0xbe1762e3	-0.14783816
72	0xbd2bddd4	-0.0419596
73	0xbd300b45	-0.042979497
74	0x3e329de9	0.1744305
75	0x3db61ee2	0.08892609
76	0x3d98c70e	0.07459842
77	0xbea086f9	-0.31352976
78	0x3e96c9ff	0.29450986
79	0x3da3e309	0.08002288
80	0xbe0aff19	-0.13573875
81	0x3ce95fe6	0.02848811
82	0x3e9e2494	0.30887282
83	0x3d7cdea5	0.061735768
84	0x3c67c456	0.014145931
85	0x3ba13dab	0.0049206815
86	0x3dfa7401	0.12229157
87	0x3e86a3b4	0.2629677
88	0x3dafd5cd	0.08585701
89	0x3e06973c	0.13143629
90	0x3e839a94	0.2570387
91	0x3e2444e3	0.16041903
92	0xbe09df62	-0.1346412
93	0xbb38b79f	-0.0028185619
94	0xbe21038d	-0.15724011
95	0xbea770b1	-0.32703164
96	0xbd9c5961	-0.07634235
97	0xbd44a594	-0.04800947
98	0xbd893274	-0.06699076
99	0xbdd17c87	-0.1022883
100	0xbd6eb978	-0.058282346
101	0x3da2a4b2	0.079415694
102	0xbdd5a9f5	-0.10432807
103	0x3cb07ab2	0.02154288
104	0xbf209d98	-0.6274047
105	0xbf06b4fd	-0.52619916
106	0x3deecf87	0.116606764
107	0xbb474d7d	-0.0030411177
108	0x3d778ffb	0.060440045
109	0x3f622148	0.88332033
110	0xbd3c63fa	-0.045993783
111	0xbe2d014a	-0.16895023
112	0x3eb9e22d	0.3630537
113	0x3d1a741d	0.03770839
114	0x3e50826d	0.20362253
115	0x3d67e3e9	0.056613836
116	0x3e883b6c	0.26607835
117	0x3d8f40c9	0.06994779
118	0xbdb353b2	-0.08756198
119	0x3ded55a6	0.11588602
120	0x3e791767	0.24325334
121	0xbe1e910b	-0.15485017
122	0x3d2a966a	0.041647352
123	0xbd6d1be7	-0.057887938
124	0x3c058993	0.008150476
125	0xbd027d3b	-0.03185771
126	0xbdc9271d	-0.098219134
127	0x3d246784	0.040137783
128	0xbea0464c	-0.31303632
129	0xbd597130	-0.05308646
130	0x3dd1ef65	0.10250739
131	0xbe8184e4	-0.252967
132	0xbe75922f	-0.23981546
133	0x3c39f57e	0.011350034
134	0xbd5b88a4	-0.053597108
135	0xbf121498	-0.57062674
136	0xbe7c2b54	-0.24625903
137	0xbf0fe69d	-0.5621126
138	0x3d022cdc	0.031781062
139	0xbf7ced92	-0.98800004
140	0xbe66be80	-0.22533607
141	0xbd1b9d5e	-0.037991874
142	0xbed547bf	-0.416563
143	0xbe330422	-0.17482045
144	0x3eb4a03c	0.352785
145	0xbcf4ee0f	-0.029898671
146	0xbd3e7eca	-0.046507634
147	0xbe85b46b	-0.2611421
148	0xbda33793	-0.07969584
149	0xbeea8cf3	-0.4581066
150	0xbde80cac	-0.11330542
151	0x3d5b953b	0.053609114
152	0x3e2159f1	0.15756966
153	0x3d7cd5ce	0.061727338
154	0xbd7731b7	-0.060350146
155	0xbe3c12cd	-0.18366547
156	0xbf61f6be	-0.88267124
157	0xbdb27e72	-0.08715524
158	0xbe758a70	-0.23978591
159	0x3da5dbf0	0.080985904
160	0xbda644b1	-0.081185706
161	0xbd746ee8	-0.05967608
162	0x3c8283f4	0.01593206
163	0xbe6ed72d	-0.2332427
164	0xbe41f31b	-0.18940394
165	0x3e4a94b9	0.19783296
166	0xbd8df876	-0.06932156
167	0xbdcfe4a9	-0.10151035
168	0xbd597b67	-0.0530962
169	0xbceb709f	-0.028740225
170	0x3ce8cc50	0.028417736
171	0xbbf2004e	-0.00738529
172	0xbe8e0c16	-0.27743596
173	0xbf8a96b8	-1.0827246
174	0xbf52f479	-0.82404286
175	0xbcc59dea	-0.02412315
176	0x3e9db894	0.30804884
177	0xbe6041a0	-0.21900034
178	0xbd94b282	-0.0726061
179	0xbe39e04d	-0.1815197
180	0x3dbc8819	0.09205646
181	0xbd5ade79	-0.053434823
182	0x3d2ea82f	0.04264086
183	0x3e3ebb7e	0.1862621
184	0x3de41a45	0.11137823
185	0x3de8442c	0.11341128
186	0xbdc8eefb	-0.09811207
187	0xbed9e86a	-0.4256013
188	0xbd7063ce	-0.05868893
189	0x3ea746d0	0.32671213
190	0x3d0bc6b4	0.034125045
191	0x3e056c75	0.13029654
192	0xbd124fe5	-0.035720725
193	0x3dbce54a	0.09223421
194	0x3ee6f366	0.45107573
195	0x3eabc5fd	0.3354949
196	0xbd11ca2b	-0.035593193
197	0xbd91e7c3	-0.07124283
198	0x3e4e21a0	0.20130014
199	0xbecfc4a9	-0.40579727
200	0x3da1e323	0.07904651
201	0x3e238a88	0.15970814
202	0xbdcaf767	-0.099104695
203	0xbf5b5175	-0.8567117
204	0x3dda2b08	0.10652739
205	0x3e7f874e	0.24953958
206	0xbef6d6e7	-0.48210832
207	0x3deb2b8c	0.11482915
208	0xbef80940	-0.48444557
209	0x3e6c9cec	0.23106736
210	0x3edb4bb9	0.4283121
211	0x3e3f252d	0.18666525
212	0x3da96b81	0.08272458
213	0x3eab8645	0.33500877
214	0x3f251c69	0.64496475
215	0x3dd3b5f1	0.10337437
216	0x3d9d7305	0.07687954
217	0xbd563a18	-0.052301496
218	0xbf05b4c8	-0.52228975
219	0xbf72e308	-0.9487767
220	0xbf0351e8	-0.51296854
221	0xbeb347a3	-0.35015592
222	0x3e141ec5	0.14464863
223	0xbd664ad8	-0.05622372
224	0xbf8e8214	-1.1133447
225	0x3d27af45	0.040938634
226	0x3ce7a8b9	0.028278695
227	0xbdbb0c24	-0.09133175
228	0x3dba2e4f	0.09090864
229	0xbc2ba0ac	-0.010475319
230	0x3ecf0011	0.40429738
231	0xbdeace8a	-0.114651754
232	0xbd6f8aea	-0.05848209
233	0x3e4ff7e2	0.20309404
234	0x3b12f3cd	0.0022423149
235	0xbe08a25f	-0.1334319
236	0xbf118994	-0.5685055
237	0x3ef1c9a7	0.4722416
238	0xbee9d963	-0.45673665
239	0x3e14b781	0.14523126
240	0x3d88623d	0.066593625
241	0xbe7b8eb3	-0.24566154
242	0xbdd29033	-0.1028141
243	0xbf0a1e1a	-0.5395218
244	0xbf9ad6e2	-1.2096827
245	0xbefd2104	-0.4943925
246	0x3e93106d	0.2872347
247	0xbd94799a	-0.07249756
248	0x3dcdc760	0.100477934
249	0x3c5e388d	0.013563287
250	0x3e9052d1	0.28188184
251	0xbddadc14	-0.10686508
252	0xbdd41485	-0.10355476
253	0x3dede181	0.11615277
254	0xbe99f949	-0.30073002
255	0x3e5bcc07	0.21464549

fc3.bias f4 [64]
0	0xbe6af508	-0.22945035
1	0x3d815a42	0.063160434
2	0xbcd3383c	-0.02578365
3	0x3dbc2ed2	0.09188618
4	0x3b7a9398	0.0038234945
5	0x3e41c6a1	0.18923427
6	0x3e2bed97	0.16789852
7	0xbe1fd2ef	-0.15607809
8	0xbb2a9e0d	-0.0026034147
9	0x3e6870c7	0.22699271
10	0xbe4262af	-0.18982957
11	0xbd8a9534	-0.067667395
12	0x3e0d475b	0.13796751
13	0xbddbbcf4	-0.10729399
14	0xbd463d91	-0.048398558
15	0xbd61630d	-0.055026103
16	0x3e931c65	0.287326
17	0xbe0011d6	-0.12506804
18	0x3cd94953	0.026524222
19	0xbe3740c2	-0.17895797
20	0xbde5c981	-0.112200744
21	0x3d6a38d3	0.057183098
22	0xbd933f8b	-0.07189854
23	0x3efadd1c	0.48996818
24	0x3ea79548	0.3273108
25	0xbde3e821	-0.111282595
26	0xbe767dfe	-0.240715
27	0xbd84cb94	-0.06484142
28	0x3e47031d	0.19434781
29	0x3edc3469	0.43008736
30	0xbda9318e	-0.08261405
31	0x3ea10da2	0.31455714
32	0xbe044cce	-0.12919924
33	0x3ee783fc	0.45217884
34	0xbe0b465c	-0.13601059
35	0xbdbde9d8	-0.09273118
36	0x3e4f2839	0.20230187
37	0xbdd056a5	-0.10172776
38	0x3ec39871	0.3820224
39	0xbdbd620e	-0.09247218
40	0xbd5fac48	-0.05460766
41	0x3dc193d8	0.09452027
42	0xbdd9d238	-0.10635799
43	0x3ecb38d5	0.39691797
44	0x3e2cb5b4	0.16866189
45	0x3edc4954	0.43024695
46	0x3ed33740	0.4125309
47	0xb9a72739	-0.00031881945
48	0x3c927307	0.017877115
49	0x3ee9b1e9	0.45643547
50	0x3d40d40c	0.047077224
51	0x3d390024	0.04516615
52	0x3ea7c6f0	0.32768965
53	0xbebf3a1f	-0.3734903
54	0xbe0b9065	-0.13629301
55	0xbdcc1af7	-0.09966081
56	0x3d9d4b5b	0.076803885
57	0x3eb4fbbb	0.35348305
58	0x3e1b3347	0.1515628
59	0xbd8c7c5d	-0.06859658
60	0x3e42fcf2	0.19041803
61	0xbd58ec6a	-0.052959837
62	0x3ed05599	0.40690306
63	0x3e6c76ea	0.23092237

fc4.weight f4 [90, 64]
0	0xbf026279	-0.5093151
1	0xbd7406c5	-0.05957677
2	0xbd82f451	-0.06394256
3	0x3ea3af5f	0.31969735
4	0x3f022d8d	0.50850755
5	0xbeefb381	-0.46816638
6	0xbea68e96	-0.3253066
7	0xbd338c81	-0.043835167
8	0xbca60192	-0.02026442
9	0xbf2f27df	-0.68420213
10	0x3e58e4cc	0.21181029
11	0x3ccaf844	0.024776585
12	0x3dc1b1b6	0.09457724
13	0x3cdd57c1	0.027019383
14	0xbd1fbb4f	-0.03899699
15	0x3d882b7c	0.06648919
16	0x3f239c76	0.63910615
17	0x3d4cb528	0.04997745
18	0xbf4a643e	-0.7905921
19	0x3d92a687	0.07160669
20	0xbe18eef1	-0.14934899
21	0xbea2eb88	-0.3182032
22	0xbd0467a7	-0.032325413
23	0xbf62e0df	-0.88624376
24	0x3ee09b6d	0.4386858
25	0x3d0421be	0.03225874
26	0xbf373f06	-0.7158054
27	0x3dbcd553	0.09220376
28	0xbd24a447	-0.04019573
29	0xbf1f9e32	-0.6235076
30	0x3c918b44	0.017766602
31	0x3d0c2e0f	0.034223612
32	0xbcb2e3f0	-0.021837205
33	0xbe4e3993	-0.2013915
34	0xbe291d96	-0.16515192
35	0xbdb06ea9	-0.08614857
36	0xbec55cc2	-0.3854733
37	0xbd007b89	-0.031367812
38	0x3d5bf5c2	0.05370117
39	0x3f199dd5	0.6000646
40	0x3e7f8510	0.24953103
41	0x3e86719e	0.26258558
42	0x3e81a544	0.253214
43	0x3d719a02	0.058984764
44	0xbdf18691	-0.11793245
45	0x3ee5fdbb	0.44920143
46	0xbd1a0b12	-0.037608214
47	0x3e8fb77b	0.28069672
48	0xbeccbe1b	-0.3998879
49	0x3e9f584f	0.31122062
50	0x3f2305f5	0.63680965
51	0xbeade023	-0.33960065
52	0x3f0e5450	0.555974
53	0xbec4d8df	-0.3844671
54	0xbea901c9	-0.33009174
55	0xbcbd02ac	-0.023072563
56	0x3e9e7321	0.3094721
57	0x3e895ce4	0.26828682
58	0xbe889fce	-0.2668442
59	0x3f16e17d	0.5893782
60	0xbec573c5	-0.38564888
61	0xbd7e3a70	-0.06206745
62	0x3ce75102	0.02823687
63	0x3f31111b	0.69166726
64	0x3eb55d0b	0.3542255
65	0xbe835eea	-0.2565835
66	0x3d425a73	0.04744954
67	0xbe4ac116	-0.19800219
68	0xbd584bbe	-0.05280661
69	0x3edde5ee	0.43339485
70	0x3f33a64a	0.7017561
71	0xbdc07c1e	-0.093986735
72	0xbb93bbf3	-0.0045084893
73	0xbe660246	-0.22461805
74	0xbe5a6a5a	-0.21329632
75	0x3cd897a2	0.026439492
76	0xbf0cc716	-0.5499128
77	0xbcbeddee	-0.023299184
78	0xbdfb9183	-0.122836135
79	0x3c83e9dd	0.016102726
80	0xbee7ab3b	-0.45247826
81	0x3d365c00	0.04452133
82	0xbec4aab7	-0.38411495
83	0xbf0d3927	-0.5516533
84	0xbd94d165	-0.07266501
85	0x3f15f1e0	0.58572197
86	0xbde3f3c2	-0.111304775
87	0x3e0f99a9	0.1402346
88	0xbd9e71a7	-0.07736521
89	0x3db14497	0.086556606
90	0xbe1dd1b1	-0.15412022
91	0x3eced790	0.40398836
92	0x3ce3cdc1	0.027808072
93	0xbe0abbca	-0.13548198
94	0x3dae35ee	0.0850638
95	0x3e48301a	0.195496
96	0x3d97d443	0.074135326
97	0x3e2a3069	0.1662003
98	0xbf508f0a	-0.8146826
99	0x3d516d90	0.051129878
100	0x3f06fd0a	0.52729857
101	0xbe0d7d7d	-0.13817401
102	0x3f07e3f3	0.530822
103	0xbe9d0ce4	-0.30673897
104	0x3e30e01b	0.1727299
105	0x3e8bff3f	0.27343175
106	0xbd9a2905	-0.07527355
107	0xbdfc7a15	-0.12327973
108	0xbf859722	-1.0436747
109	0xbd9bb2cc	-0.07602462
110	0x3e31b3bd	0.17353721
111	0x3eace213	0.3376623
112	0x3f03bbcf	0.5145845
113	0xbe6b8268	-0.22998965
114	0x3f1c4f9c	0.61058974
115	0x3e40860b	0.18801133
116	0x3f15ef02	0.5856782
117	0xbd93d0af	-0.072175376
118	0xbee89992	-0.45429665
119	0x3dcdd86b	0.10051044
120	0x3e4b32a6	0.1984354
121	0xbce901e1	-0.028443279
122	0xbe9e9c38	-0.3097856
123	0x3e5b6d32	0.21428373
124	0x3e966ce9	0.29379967
125	0xbd932673	-0.07185068
126	0xbe7eed97	-0.24895321
127	0x3efdd6ca	0.49577934
128	0x3ebc9071	0.3682895
129	0x3f7063ea	0.93902457
130	0xbec8fffb	-0.39257798
131	0x3cab5b99	0.0209177
132	0x3eb93c50	0.36178827
133	0x3ead3ed4	0.33836997
134	0xbee4aa15	-0.44661012
135	0xbd40a47a	-0.047031857
136	0xbc399567	-0.011327124
137	0x3db0a2ae	0.08624779
138	0x3e3ac0ad	0.18237562
139	0xbb71e81e	-0.0036912034
140	0xbf78daa9	-0.9720865
141	0x3d1c7bce	0.038204007
142	0x3f80c573	1.0060257
143	0xbcc3b5ba	-0.023890365
144	0x3f2074c2	0.6267816
145	0x3cb52406	0.022111904
146	0xbece99c6	-0.40351695
147	0xbe3275d8	-0.17427766
148	0x3f69738e	0.9119195
149	0x3ec1659e	0.3777284
150	0xba32d746	-0.00068222394
151	0xbed1881e	-0.40924162
152	0xbe1a5f91	-0.15075518
153	0x3e2785a2	0.1635957
154	0xbea56ae4	-0.32308114
155	0xbf52f482	-0.8240434
156	0x3e22dc8a	0.15904441
157	0x3ebfea40	0.37483406
158	0x3bf98ecb	0.007615899
159	0x3de9d7c5	0.11418108
160	0x3bb99380	0.0056633353
161	0xbe7c4adb	-0.2463793
162	0x3e7ac35c	0.24488586
163	0x3d2c7ae5	0.04210939
164	0xbf065286	-0.5246967
165	0x3c3a567d	0.0113731595
166	0xbe6e1e64	-0.2325378
167	0xbe96b170	-0.2943225
168	0xbf13bad1	-0.57706934
169	0x3f343f81	0.704094
170	0xbf325cf6	-0.696731
171	0x3ecb310a	0.3968585
172	0xbed2252d	-0.41043988
173	0xbed915fc	-0.42399585
174	0x3f1f49de	0.6222209
175	0x3f20a845	0.6275676
176	0x3e3ec4ec	0.18629807
177	0xbed6a2c5	-0.41921058
178	0x3e02ce02	0.12773898
179	0x3e687201	0.22699739
180	0xbdce1e2e	-0.1006435
181	0x3e91e0f0	0.28491926
182	0xbeb8a1d8	-0.36060977
183	0xbda3a2ae	-0.07990013
184	0xbebb2435	-0.3655106
185	0x3e97aee2	0.29625612
186	0xbe38f730	-0.18063045
187	0x3da375f9	0.07981486
188	0xbe4018cd	-0.18759461
189	0x3d6a32f8	0.057177514
190	0x3eb83a13	0.35981807
191	0xbe56c219	-0.2097248
192	0xbedf3ff8	-0.43603492
193	0x3e8223ea	0.25418025
194	0xbe27f813	-0.16403227
195	0x3e8f9b9f	0.28048417
196	0x3f03587b	0.51306885
197	0xbe88edf4	-0.26744044
198	0xbe335ca7	-0.17515813
199	0x3e1585d8	0.14601839
200	0x3d80a711	0.062818654
201	0xbefc998b	-0.49335894
202	0x3e8ba370	0.2727313
203	0xbd355b15	-0.044276316
204	0x3e6a90dd	0.22906823
205	0xbccbe326	-0.024888586
206	0xbd6b1397	-0.05739173
207	0xbe200061	-0.15625145
208	0x3f12e4d1	0.57380396
209	0xbd192117	-0.037385073
210	0xbf22e134	-0.6362488
211	0xbdad0942	-0.084490314
212	0xbd6f0d36	-0.05836221
213	0xbe5e79f2	-0.21726206
214	0xbca2e51c	-0.019884638
215	0xbf1958a1	-0.5990086
216	0x3ed475a1	0.41495994
217	0x3e01ee97	0.12688671
218	0xbf2c1447	-0.6721844
219	0x3ea76c97	0.32700035
220	0x3cef4f51	0.029212626
221	0xbf12b166	-0.5730194
222	0xbd072bd3	-0.03300078
223	0xbe2b533e	-0.16730973
224	0xbd636f94	-0.05552633
225	0xbe3a85dd	-0.18215127
226	0xbc4a80ce	-0.012359811
227	0x3dc7f45c	0.09763405
228	0xbe17a597	-0.14809261
229	0xbca4cfd7	-0.020118637
230	0xbdb229bd	-0.08699367
231	0x3ee3f9f2	0.4452663
232	0x3c92299f	0.017842112
233	0x3e65b07b	0.22430603
234	0x3d318e84	0.043348804
235	0x3d2127e8	0.0393447
236	0xbde0540e	-0.10953532
237	0x3ee8d559	0.4547527
238	0x3d4aabfe	0.04948043
239	0x3e09fa93	0.13474493
240	0xbf035b80	-0.5131149
241	0x3e5a5fc0	0.21325588
242	0x3ef3e88c	0.47638357
243	0xbe85bc49	-0.26120213
244	0x3f078c57	0.52948517
245	0xbeaaf8cf	-0.3339295
246	0xbe3855c6	-0.1800147
247	0xbdf54647	-0.11976295
248	0x3e095221	0.13410236
249	0x3e92d4af	0.2867789
250	0xbec539ab	-0.3852056
251	0x3efee208	0.49781823
252	0xbebd0924	-0.36921036
253	0x3d8143e1	0.06311775
254	0xbc6cb9ed	-0.014448625
255	0x3f15496c	0.5831516

fc4.bias f4 [90]
0	0xbe8e3c5f	-0.27780434
1	0xbd7a95bd	-0.061177958
2	0xbe24dfae	-0.16100952
3	0xbe910669	-0.28325203
4	0xbdbda5ca	-0.092601374
5	0x3d8769b2	0.06611957
6	0xbe17c385	-0.14820679
7	0xbd24f1da	-0.04026971
8	0x3dad9b62	0.084769025
9	0xbd038321	-0.032107476
10	0x3e061824	0.13095146
11	0xbbfccbe3	-0.007714735
12	0x3dd82207	0.10553365
13	0x3d119e1d	0.03555118
14	0x3e105a5e	0.14096972
15	0x3de8e186	0.1137114
16	0x3db62a45	0.08894781
17	0x3da8ae83	0.082364105
18	0x3e7467ce	0.23867723
19	0xbd8de1ce	-0.069278345
20	0x3d728c99	0.059216116
21	0x3e4cbd7e	0.1999416
22	0xbd271a34	-0.040796474
23	0x3d0910ed	0.033463407
24	0x3e135bfd	0.1439056
25	0xbbbd6ea5	-0.005781012
26	0x3db66a89	0.08907039
27	0x3ddc732f	0.10764157
28	0x3c3bd8f2	0.011465298
29	0x3d06706b	0.032822054
30	0x3d858538	0.0651955
31	0xbd897f4a	-0.067137316
32	0xbd87f8cb	-0.0663925
33	0x3e15c0b7	0.14624296
34	0xbdcd6c8a	-0.10030468
35	0x3cb6b3ee	0.022302594
36	0xbd02cd0f	-0.03193384
37	0x3cdc0af6	0.026860695
38	0xbd8a285f	-0.067459814
39	0xbd89a03e	-0.06720017
40	0xbb7fdf61	-0.0039043056
41	0xbc2a778a	-0.010404477
42	0x3c4261b9	0.011864119
43	0x3dfd4e7d	0.12368486
44	0xbd71c798	-0.059028238
45	0xbca120cf	-0.019668965
46	0x3d73a774	0.059485868
47	0xbd99c07f	-0.07507419
48	0xbdf4164c	-0.11918315
49	0x3db5ffe6	0.088866994
50	0xbe5ee877	-0.21768366
51	0x3d05915b	0.032609325
52	0x3e12a025	0.14318903
53	0xbd5ce61f	-0.053930398
54	0xbd907305	-0.07053188
55	0x3df600f0	0.120118976
56	0xbd64e7af	-0.055885013
57	0x3d081702	0.033225067
58	0x3dde0d36	0.108423635
59	0xbe15d9df	-0.14633892
60	0xbd54545a	-0.051838256
61	0x3c6f19b2	0.014593529
62	0xbdab34bf	-0.0835967
63	0xbd763aa9	-0.060114536
64	0x3d657845	0.0560229
65	0xbe0aedaa	-0.13567224
66	0xbd9f1869	-0.07768328
67	0xbc2ba9a9	-0.010477462
68	0xbe02cb42	-0.12772849
69	0xbe0a8c30	-0.1353004
70	0xbced761f	-0.028986989
71	0xbd92d658	-0.07169789
72	0xbd0d955d	-0.034566272
73	0xbad85e78	-0.0016507646
74	0xbdf43c3f	-0.119255535
75	0x39b4a8cd	0.00034458042
76	0x3b84031d	0.0040286914
77	0xbd8f6d37	-0.07003253
78	0x3d835ff6	0.064147875
79	0x3d1b1ac1	0.03786731
80	0xbd6e5d24	-0.058194295
81	0x3d6c2a21	0.057657365
82	0x3c620042	0.013794007
83	0xbdfc4143	-0.12317135
84	0x3cc47368	0.023980811
85	0xbbcec5fe	-0.0063102236
86	0xbe01fefd	-0.12694927
87	0xbcc9bd1e	-0.02462631
88	0x3b739f2c	0.0037173731
89	0xbda9d1b6	-0.08291952
